Arduino_Gesture/models/gesture_model.tflite (tflite, 147764 bytes, 6 tensors)

sequential/dense/MatMul/ReadVariableOp/transpose f4 [50, 714]
-0.0024557263 -0.01981616 0.02328553 -0.079830974 0.031514682 0.07987656 -0.03417208 -0.03789968
0.019063182 0.07627687 -0.013219878 0.026522815 -0.079253115 0.014642082 0.051689014 -0.05454663
0.050773427 -0.0751179 0.08499941 -0.038201924 -0.078982644 -0.07933368 -0.010809898 -0.037463672
0.050137863 -0.049947225 -0.0080686435 0.005543381 0.06482312 -0.042722475 0.017876878 0.0607934
0.001993008 -0.07914077 -0.085764706 -0.02506607 0.0025301427 0.017949201 -0.052561898 0.073626816
-0.07024138 -0.06072706 -0.060303684 0.0089134425 -0.001222752 -0.056076925 0.06440504 0.03119298
-0.04104185 -0.08270847 -0.04992603 -0.0038116276 0.0057709813 -0.055235036 -0.08125599 -0.025723591
0.030209512 -0.051747076 -0.061173737 0.012151815 -0.031013008 -0.029249728 -0.07446486 -0.01277779
0.07989958 -0.047365107 -0.0064393803 0.051375404 0.0039467663 -0.05848623 -0.086385146 0.044151396
0.07896903 0.04040645 0.08131002 0.062048167 -0.017603077 -0.083695024 -0.04467809 0.087004825
-0.04820991 -0.06892211 0.013810001 -0.0549793 0.0081416 -0.03953974 0.07003641 -0.034982678
-0.07593604 0.0012555644 -0.0017102286 -0.06266923 0.0093017 0.017108902 -0.0600793 0.034632362
-0.009532258 0.021087483 0.006804146 -0.0068142414 -0.014404491 -0.018319122 0.04547195 0.018697664
-0.0030388907 0.07274434 0.06445956 0.027706012 0.03712769 -0.044112246 0.012489952 0.053217247
-0.057659682 0.026858442 0.06414713 -0.008766562 -0.079808794 -0.07408278 0.07715796 0.07792713
-0.08021564 0.070774674 -0.059748217 0.05537525 -0.013906978 0.03197214 -0.009819098 -0.084884115
-0.056290068 0.042194664 0.086949304 0.086517945 -0.03061704 0.06310874 -0.0023094714 -0.07344763
-0.020941786 -0.012991041 -0.02443938 -0.032638468 0.013666689 0.08578032 -0.07272123 0.025079258
-0.03591041 -0.05999711 -0.0124733895 -0.055143192 -0.006679848 -0.015001968 -0.026750267 -0.082733124
-0.08619142 0.08720377 0.07519773 -0.0016406104 0.07338773 -0.033918012 -0.013253599 -0.05057899
0.0729416 -0.047044843 -0.030011412 -0.041998316 0.041979194 -0.08370322 0.07095288 0.0034271479
0.03471686 -0.03942442 0.07797006 0.03786081 0.041729286 -0.009503163 -0.0005181581 0.054752886
0.086179525 -0.047373075 0.017941386 -0.05426663 -0.032881636 -0.043350857 0.017658964 0.019094221
0.024635173 0.014396891 0.03805016 -0.008357279 0.046683714 -0.0576132 -0.07287754 0.003626369
-0.070850044 0.064006016 0.04818794 0.039188534 0.07553756 -0.02385547 -0.06453793 0.034898058
-0.053088274 -0.01366654 -0.08532462 -0.0717014 -0.025560223 0.032135695 0.013156541 -0.049241595
-0.044634648 0.01969026 0.0070353076 0.07427724 0.049740255 -0.023888089 -0.04972472 -0.032758836
0.08308686 0.041539192 0.0234299 0.0140475705 0.06869656 0.053180918 0.0648198 0.052222982
0.0351445 -0.06645591 0.081095725 -0.04863603 -0.0005501434 -0.02363491 -0.06726289 -0.020325571
-0.050024785 -0.035927966 -0.05471276 0.0035731494 0.0648507 0.07386842 0.050994843 0.03691809
0.008558594 0.088086694 -0.06963682 -0.06580291 0.0068759397 0.056803435 -0.01260969 0.011461541
0.047316134 0.08046208 0.028972946 -0.053861324 0.06015937 0.08762154 -0.0006846711 0.0401697
00000000: 40f0 20bb 8055 a2bc 4cc1 be3c 6c7e a3bd
00000010: 8a15 013d 5296 a33d 06f8 0bbd b23c 1bbd
00000020: 642a 9c3c 0c37 9c3d 3098 58bc 6046 d93c
00000030: 754f a2bd 58e5 6f3c dcb7 533d 496c 5fbd
00000040: ccf7 4f3d 6ad7 99bd 2c14 ae3d 9f79 1cbd
00000050: a7c1 a1bd b279 a2bd 001c 31bc 8273 19bd
00000060: 5c5d 4d3d 7695 4cbd 5832 04bc 40a5 b53b
00000070: fcc1 843d c3fd 2ebd 8872 923c 8002 793d
00000080: 209d 023b 8e14 a2bd 68a5 afbd 5c57 cdbc
00000090: c0d0 253b 340a 933c 254b 57bd a8c9 963d
000000a0: b6da 8fbd f0bc 78bd ff00 77bd b009 123c
000000b0: c044 a0ba ebb0 65bd cae6 833d 6c88 ff3c
000000c0: 801b 28bd 0f63 a9bd 3d7f 4cbd 80cc 79bb
000000d0: 801a bd3b 223e 62bd 8a69 a6bd 48ba d2bc
000000e0: f079 f73c bef4 53bd 5091 7abd 6818 473c
000000f0: fe0e febc 209d efbc 0881 98bd f059 51bc
00000100: 64a2 a33d ea01 42bd 7001 d3bb 046f 523d
00000110: e053 813b 428f 6fbd b2ea b0bd 18d8 343d
00000120: 84ba a13d 3c81 253d de85 a63d 3826 7e3d
00000130: 5434 90bc 4c68 abbd 5f00 37bd 962f b23d
00000140: c177 45bd 0927 8dbd 5843 623c f931 61bd
00000150: 5864 053c 6cf4 21bd 406f 8f3d ff49 0fbd
00000160: 5b84 9bbd c091 a43a c029 e0ba ba58 80bd
00000170: 2866 183c f827 8c3c b615 76bd aada 0d3d
00000180: 302d 1cbc a8bf ac3c 50f5 de3b 004a dfbb
00000190: d000 6cbc fc11 96bc cc40 3a3d d82b 993c
000001a0: 2028 47bb fcfa 943d 6003 843d b8f7 e23c
000001b0: 3413 183d 0baf 34bd a8a2 4c3c 54fa 593d
000001c0: 8f2c 6cbd 3c06 dc3c 925f 833d a0a1 0fbc
000001d0: cb72 a3bd b6b8 97bd fe04 9e3d 4298 9f3d
000001e0: 1948 a4bd 50f2 903d 8cba 74bd 28d1 623d
000001f0: 18da 63bc 38f5 023d 48e0 20bc b9d7 adbd
00000200: 6a90 66bd 50d4 2c3d 7a12 b23d 5230 b13d
00000210: 96d0 fabc 283f 813d 805a 17bb b66b 96bd
00000220: 1c8e abbc 60d8 54bc 1835 c8bc eaaf 05bd
00000230: 40ea 5f3c 98ad af3d deee 94bd 0473 cd3c
00000240: cb16 13bd 88bf 75bd 305d 4cbc d4dd 61bd
00000250: a0e2 dabb d0ca 75bc 6023 dbbc fc6f a9bd
00000260: 2185 b0bd e497 b23d 4401 9a3d c009 d7ba
00000270: 4e4c 963d 9ded 0abd a025 59bc ea2b 4fbd
00000280: 6862 953d 18b2 40bd 7eda f5bc 6d06 2cbd
00000290: 60f2 2b3d 986c abbd be4f 913d 009a 603b
000002a0: 4433 0e3d 807b 21bd c4ae 9f3d f013 1b3d
000002b0: 54ec 2a3d 28b3 1bbc 00d5 07ba 9044 603d
000002c0: e47e b03d 450a 42bd d0f9 923c b046 5ebd
000002d0: e5ae 06bd ab90 31bd 88a9 903c 7c6b 9c3c
000002e0: b4cf c93c f0e0 6b3c 7cda 1b3d f8ec 08bc
000002f0: 6c37 3f3d d2fb 6bbd d240 95bd 60a8 6d3b
00000300: d419 91bd 9615 833d b860 453d 2884 203d
00000310: 70b3 9a3d 8c6c c3bc 762c 84bd 44f1 0e3d
00000320: 1773 59bd a0e9 5fbc adbe aebd 2fd8 92bd
00000330: ac63 d1bc b8a0 033d 888e 573c 8eb1 49bd
00000340: d2d2 36bd 784d a13c 7088 e63b aa1e 983d
00000350: 70bc 4b3d f4b0 c3bc 26ac 4bbd 212e 06bd
00000360: 7229 aa3d 0025 2a3d 10f0 bf3c c827 663c
00000370: c8b0 8c3d 3cd4 593d 3ec0 843d c4e7 553d
00000380: aef3 0f3d 091a 88bd 8415 a63d 9336 47bd
00000390: 8037 10ba 009e c1bc 20c1 89bd d081 a6bc
000003a0: cae6 4cbd 3429 13bd 7d1a 60bd 802b 6a3b
000003b0: 72d0 843d 5448 973d f8df 503d 6c37 173d
000003c0: 5839 0c3c cc66 b43d c09d 8ebd adc3 86bd
000003d0: 904f e13b b8aa 683d e098 4ebc 30c9 3b3c
000003e0: 90ce 413d 4ec9 a43d ac58 ed3c b19d 5cbd
000003f0: ac69 763d ec72 b33d 807b 33ba fc88 243d

sequential/dense/MatMul_bias f4 [50]
0.0 -0.0012262978 -0.0031622464 -0.0031622448 -0.003162233 -0.0031622355 0.0 0.017746847
-0.0031620695 -0.0009751497 0.0 0.0 0.02048116 -0.0031617004 0.0 -0.0015561808
0.050594173 0.0 0.0 -0.0044165915 -0.0009974473 -0.0031621754 0.0 -0.0017058516
0.0 -0.0036513647 0.0 0.0 0.0 0.0 -0.0031621694 0.0
0.0 0.0 0.0 0.0 -0.0009384722 0.0 -0.003162173 0.015074244
-0.0031622248 0.0 -0.0027543292 0.0 -0.003162244 0.0 -0.0021564923 0.0
0.0 0.014406516
00000000: 0000 0000 babb a0ba b13d 4fbb aa3d 4fbb
00000010: 773d 4fbb 823d 4fbb 0000 0000 d661 913c
00000020: b93a 4fbb 30a1 7fba 0000 0000 0000 0000
00000030: 1bc8 a73c 8834 4fbb 0000 0000 c3f8 cbba
00000040: d63b 4f3d 0000 0000 0000 0000 0eb9 90bb
00000050: c7bc 82ba 803c 4fbb 0000 0000 e296 dfba
00000060: 0000 0000 bc4b 6fbb 0000 0000 0000 0000
00000070: 0000 0000 0000 0000 663c 4fbb 0000 0000
00000080: 0000 0000 0000 0000 0000 0000 0000 0000
00000090: ce03 76ba 0000 0000 763c 4fbb f6f9 763c
000000a0: 543d 4fbb 0000 0000 fa81 34bb 0000 0000
000000b0: a73d 4fbb 0000 0000 f053 0dbb 0000 0000
000000c0: 0000 0000 4f09 6c3c

sequential/dense_1/MatMul/ReadVariableOp/transpose f4 [15, 50]
0.12153903 -0.2530311 -0.09010945 -0.20896941 0.018540114 -0.13099058 -0.017843217 -0.28327727
-0.19841436 0.15481657 -0.08779104 0.20519221 0.19396392 -0.011620969 -0.2901477 -0.005697876
0.13096075 0.077705175 0.09606388 -0.29016268 0.25632352 0.2715565 0.18768308 0.29717612
0.2252804 -0.11209212 -0.13520901 0.21027547 0.20777434 -0.25481173 0.15499237 0.030615479
-0.29693618 0.29861403 0.26983678 0.2756403 -0.17249344 0.12905094 -0.2213372 -0.33980352
0.15782246 0.16615102 0.07400936 0.05017087 0.28220052 -0.19709384 0.08451139 0.23210585
0.13610137 -0.44515345 0.14761809 0.005395127 0.10074449 -0.21167757 0.0032181677 0.05659178
-0.28055412 -0.3042016 -0.09036248 0.24123105 0.00987348 0.05756527 0.41626593 -0.11360699
0.036090255 0.21418554 -0.015576589 0.24395776 0.060970902 0.20531963 0.16987357 -0.20235687
-0.13305938 0.14636675 0.23099184 0.05561435 -0.16584831 -0.0038232803 0.15272987 0.015200704
0.072004825 0.023583382 -0.030201495 0.26170897 0.008389831 0.0639891 0.023083512 -0.19317262
-0.18290237 -0.030356748 0.27854297 -0.15598221 -0.20003125 0.057756007 0.2840834 0.29411167
0.08648254 -0.043482333 0.022611856 -0.2725113 0.2509507 0.0042421003 -0.23978278 -0.06392312
0.17723384 0.09110451 0.15299681 0.14936085 -0.14749922 -0.18233788 0.0067992806 0.028164506
-0.10535248 -0.14761148 -0.15574664 0.12615801 -0.30421254 -0.14344087 0.26380634 -0.057096034
-0.1692845 -0.029370785 0.15403715 0.11441968 -0.26367438 -0.2526776 0.04634264 -0.21614385
0.24884754 -0.07462044 0.18425363 0.14348853 0.12206188 0.20705128 0.26057827 -0.24530557
-0.1882157 0.11110553 0.22591412 -0.21807712 0.06583914 0.059559256 -0.03287863 -0.035285264
0.15475056 0.09791914 0.25123948 0.27981955 0.14666554 0.26995507 -0.010314494 -0.11630835
-0.13621914 -0.006207387 0.28870574 -0.010910708 -0.20860484 0.38611135 -0.22751302 0.22890413
0.090354055 -0.19153251 0.08753562 -0.03793 -0.007540822 -0.04015954 -0.0992532 -0.029292047
-0.16066228 0.13878858 -0.25294912 0.07719386 0.10549155 -0.22150815 -0.2437568 0.2480877
-0.1907265 0.18885371 -0.08333683 -0.21180856 -0.010307779 -0.13131104 0.26217246 -0.21926549
-0.08108173 0.11060631 0.06900152 -0.008859098 0.07250134 0.19292161 -0.18110482 0.061940372
0.122591145 -0.2210573 0.08968772 -0.02765736 -0.0021291976 0.18578884 -0.022977948 0.2840931
0.27847832 0.25021723 0.16029869 0.08873568 -0.17690004 -0.12064342 -0.17164905 -0.027877402
-0.24494539 -0.23405915 0.09532663 -0.028755426 0.18579619 -0.13559106 0.030598313 0.1426347
-0.27220553 -0.27101195 -0.08729811 -0.26526424 0.09237515 0.045097448 0.25202566 0.2709537
0.0971511 0.027709281 -0.027475119 -0.09940533 0.17487648 0.17360854 -0.27667606 -0.04708731
-0.21976125 -0.23189607 0.25482297 -0.21732767 0.027319022 -0.12903732 -0.16474304 -0.07479681
0.09395994 0.27952284 0.032433838 -0.055943057 -0.0063749775 -0.27601638 0.09750272 0.23409522
-0.09469752 0.21639916 0.13843724 0.08450878 0.07595089 -0.19456688 0.0012290478 0.061992764
00000000: 74e9 f83d 4b8d 81be 4e8b b8bd 14fc 55be
00000010: 70e1 973c 6522 06be f02b 92bc b809 91be
00000020: 222d 4bbe 3c88 1e3e cacb b3bd e81d 523e
00000030: 7a9e 463e e065 3ebc 3d8e 94be 40b5 babb
00000040: 931a 063e e423 9f3d 24bd c43d 3490 94be
00000050: d63c 833e 7409 8b3e fe2f 403e 7827 983e
00000060: e8af 663e 8e90 e5bd 3b74 0abe 7452 573e
00000070: ccc2 543e af76 82be 52b6 1e3e 50cd fa3c
00000080: 0508 98be f0e3 983e 0c28 8a3e ba20 8d3e
00000090: 1fa2 30be ee25 043e 38a6 62be bafa adbe
000000a0: 369c 213e 7e23 2a3e 3892 973d f87f 4d3d
000000b0: 967c 903e f8d2 49be 4f14 ad3d 28ad 6d3e
000000c0: 285e 0b3e 27eb e3be 3229 173e 9bc9 b03b
000000d0: 2153 ce3d 01c2 58be e5e7 523b c8cc 673d
000000e0: caa4 8fbe 50c0 9bbe f70f b9bd 4605 773e
000000f0: 60c4 213c 90c9 6b3d cf20 d53e c8aa e8bd
00000100: 60d3 133d 7453 5b3e f334 7fbc 10d0 793e
00000110: a0bc 793d 4f3f 523e 56f3 2d3e a436 4fbe
00000120: b840 08be 2ae1 153e 2089 6c3e dfcb 633d
00000130: 24d4 29be 0090 7abb 3865 1c3e 600c 793c
00000140: 4477 933d f031 c13c 2069 f7bc b8fe 853e
00000150: 8075 093c b80c 833d a219 bd3c 0bcf 45be
00000160: c24a 3bbe b7ae f8bc 2f9d 8e3e cdb9 1fbe
00000170: fed4 4cbe 9091 6c3d 6173 913e ce95 963e
00000180: c21d b13d 881a 32bd 803c b93c 9a86 8bbe
00000190: 9c7c 803e 5101 8b3b 9e89 75be 20ea 82bd
000001a0: ca7c 353e 0095 ba3d 32ab 1c3e 0df2 183e
000001b0: 090a 17be c8b6 3abe 80cc de3b 40b9 e63c
000001c0: 0bc3 d7bd 7727 17be 0c7c 1fbe 912f 013e
000001d0: bfc1 9bbe 2ae2 12be a011 873e 88dd 69bd
000001e0: ea58 2dbe 009b f0bc eabb 1d3e dd54 ea3d
000001f0: 5400 87be f55e 81be c8d1 3d3d d054 5dbe
00000200: e4d1 7e3e 9ad2 98bd fcac 3c3e a8ee 123e
00000210: 94fb f93d 4005 543e 846a 853e 6231 7bbe
00000220: 9ebb 40be 4c8b e33d 0856 673e 9c4f 5fbe
00000230: acd6 863d 68f4 733d beab 06bd 4887 10bd
00000240: ee76 1e3e d489 c83d 76a2 803e 8244 8f3e
00000250: 7e2f 163e 8d37 8a3e 20fe 28bc 1233 eebd
00000260: 087d 0bbe 5667 cbbb 3dd1 933e d4c2 32bc
00000270: 829c 55be 63b0 c53e 2cf9 68be d865 6a3e
00000280: 8c0b b93d 1921 44be e045 b33d 7d5c 1bbd
00000290: 0019 f7bb 547e 24bd 4345 cbbd e0f5 efbc
000002a0: a784 24be 981e 0e3e 8c82 81be d117 9e3d
000002b0: f40b d83d 08d3 62be 629b 79be b40a 7e3e
000002c0: cf4d 43be de62 413e 80ac aabd 58e4 58be
000002d0: f5e1 28bc 6776 06be 783b 863e 2287 60be
000002e0: 2e0e a6bd 9085 e23d ab50 8d3d c025 11bc
000002f0: 957b 943d 3e8d 453e 8b73 39be 30b5 7d3d
00000300: 1111 fb3d d85c 62be 32ae b73d b091 e2bc
00000310: 028a 0bbb 6e3f 3e3e 403c bcbc a774 913e
00000320: b694 8e3e 791c 803e 5725 243e 0dbb b53d
00000330: 4925 35be e613 f7bd c5c4 2fbe 265f e4bc
00000340: f7d2 7abe 34ad 6fbe 9c3a c33d 8090 ebbc
00000350: 5b41 3e3e 62d8 0abe 50a9 fa3c d50e 123e
00000360: 865e 8bbe 14c2 8abe 5ac9 b2bd b7d0 87be
00000370: 2f2f bd3d 1ab8 383d 8209 813e 72ba 8a3e
00000380: 28f7 c63d 93fe e23c 8013 e1bc 0695 cbbd
00000390: d212 333e 70c6 313e 7ca8 8dbe a0de 40bd
000003a0: 1809 61be 2a76 6dbe 2878 823e 258b 5ebe
000003b0: 24cc df3c 5c22 04be 66b2 28be 122f 99bd
000003c0: 126e c03d 9e1d 8f3e 58d9 043d 8c24 65bd
000003d0: 30e5 d0bb 0552 8dbe 82af c73d a8b6 6f3e
000003e0: c6f0 c1bd be97 5d3e 7ec2 0d3e f012 ad3d
000003f0: 248c 9b3d 8a3c 47be 0018 a13a 20ec 7d3d

sequential/dense_1/MatMul_bias f4 [15]
0.07358379 0.022675967 -0.0059990347 -0.010310646 -0.009002498 0.0 0.020696634 0.062343694
0.05038007 0.0 -0.0031622488 -0.011525296 -0.008611561 0.0 0.015606355
00000000: 19b3 963d f3c2 b93c 8d93 c4bb fced 28bc
00000010: 377f 13bc 0000 0000 fd8b a93c 1a5c 7f3d
00000020: 555b 4e3d 0000 0000 bb3d 4fbb 98d4 3cbc
00000030: 8117 0dbc 0000 0000 ccb1 7f3c

sequential/dense_2/MatMul/ReadVariableOp/transpose f4 [2, 15]
0.5511497 0.5048163 -0.29071048 -0.52225065 0.4222392 0.52926767 -0.43410045 0.37053347
0.49431765 0.38200128 0.29013127 -0.5343499 -0.6638062 -0.39284438 0.2026034 -0.14326862
0.09602263 -0.38815534 0.027165242 0.5089464 0.32496625 0.64153004 -0.43962815 0.00033958332
-0.053844273 0.09653228 0.027409136 0.40822735 -0.33584124 0.80565315
00000000: 2618 0d3f a43b 013f 01d8 94be 38b2 05bf
00000010: bd2f d83e 167e 073f 6a42 debe 90b6 bd3e
00000020: 3417 fd3e ac95 c33e 168c 943e 28cb 08bf
00000030: 34ef 29bf e622 c9be 4477 4f3e 02b5 12be
00000040: 83a7 c43d 4cbc c6be a489 de3c 504a 023f
00000050: fa61 a63e 503b 243f f116 e1be 1a0a b239
00000060: d08b 5cbd b7b2 c53d 2089 e03c 2d03 d13e
00000070: 62f3 abbe 493f 4e3f

sequential/dense_2/MatMul_bias f4 [2]
0.05230768 -0.05230697
00000000: 9440 563d d53f 56bd
